| Copied codes to checkpoints/gdg8/postnet\codes\20231121013922.
| model Arch:  CNNPostNet(
  (block1): Sequential(
    (0): Conv1d(
      (conv_block): Sequential(
        (0): Conv1d(204, 128, kernel_size=(3,), stride=(1,), padding=(1,))
        (1): BatchNorm1d(128, eps=1e-05, momentum=0.1, affine=True, track_running_stats=True)
      )
      (act): LeakyReLU(negative_slope=0.2, inplace=True)
    )
    (1): Conv1d(
      (conv_block): Sequential(
        (0): Conv1d(128, 128, kernel_size=(3,), stride=(1,), padding=(1,))
        (1): BatchNorm1d(128, eps=1e-05, momentum=0.1, affine=True, track_running_stats=True)
      )
      (act): LeakyReLU(negative_slope=0.2, inplace=True)
    )
    (2): Conv1d(
      (conv_block): Sequential(
        (0): Conv1d(128, 128, kernel_size=(3,), stride=(1,), padding=(1,))
        (1): BatchNorm1d(128, eps=1e-05, momentum=0.1, affine=True, track_running_stats=True)
      )
      (act): LeakyReLU(negative_slope=0.2, inplace=True)
    )
  )
  (block2): Sequential(
    (0): Conv1d(
      (conv_block): Sequential(
        (0): Conv1d(128, 256, kernel_size=(3,), stride=(1,), padding=(1,))
        (1): BatchNorm1d(256, eps=1e-05, momentum=0.1, affine=True, track_running_stats=True)
      )
      (act): LeakyReLU(negative_slope=0.2, inplace=True)
    )
    (1): Conv1d(
      (conv_block): Sequential(
        (0): Conv1d(256, 256, kernel_size=(3,), stride=(1,), padding=(1,))
        (1): BatchNorm1d(256, eps=1e-05, momentum=0.1, affine=True, track_running_stats=True)
      )
      (act): LeakyReLU(negative_slope=0.2, inplace=True)
    )
    (2): Conv1d(
      (conv_block): Sequential(
        (0): Conv1d(256, 256, kernel_size=(3,), stride=(1,), padding=(1,))
        (1): BatchNorm1d(256, eps=1e-05, momentum=0.1, affine=True, track_running_stats=True)
      )
      (act): LeakyReLU(negative_slope=0.2, inplace=True)
    )
  )
  (block3): Sequential(
    (0): Conv1d(
      (conv_block): Sequential(
        (0): Conv1d(256, 128, kernel_size=(3,), stride=(1,), padding=(1,))
        (1): BatchNorm1d(128, eps=1e-05, momentum=0.1, affine=True, track_running_stats=True)
      )
      (act): LeakyReLU(negative_slope=0.2, inplace=True)
    )
    (1): Conv1d(128, 204, kernel_size=(1,), stride=(1,))
  )
)
| model Trainable Parameters: 0.797M
[]
hparams load_db
{'binary_data_dir': 'data/binary/lrs3', 'work_dir': 'checkpoints/gdg8/postnet', 'load_ckpt': '', 'tb_log_interval': 100, 'gen_dir_name': '', 'save_gt': True, 'num_ckpt_keep': 500, 'val_check_interval': 1000, 'valid_infer_interval': 1000, 'max_updates': 20000, 'seed': 9999, 'lr': 0.0005, 'schedule
…
